DataBase/Tasks.pth (torch, 2759 bytes, 6 tensors)

l1.weight f4 [8, 7]
0	0x3f0c29bc	0.5475118
1	0xbe3b34c1	-0.18281843
2	0x3ec1f9de	0.37885946
3	0xbe9b53f3	-0.30337486
4	0x3e6fbe32	0.23412398
5	0xbe4fa46a	-0.20277563
6	0xbe94eb70	-0.29085875
7	0xbdb2a6e6	-0.087232396
8	0xbe287fab	-0.16454951
9	0xbe79b564	-0.24385601
10	0xbea6c466	-0.32571715
11	0x3dbedfb3	0.09320011
12	0xbea17490	-0.31534243
13	0x3cd329cb	0.025776764
14	0xbe59c17d	-0.21265216
15	0x3f37a002	0.7172853
16	0xbecc0a73	-0.39851722
17	0x3f1c5abe	0.6107596
18	0xbec1e4ee	-0.37869972
19	0xbecc0bf6	-0.39852875
20	0x3f1eac9b	0.61982125
21	0xbe377e16	-0.17919192
22	0x3e910bd7	0.28329346
23	0xbe3780c7	-0.17920218
24	0x3f26fc75	0.6522897
25	0xbe37809e	-0.17920157
26	0xbe374e99	-0.17901076
27	0x3ecf844a	0.40530616
28	0xbdc82714	-0.097730786
29	0xbeaa8322	-0.3330317
30	0x3d9206c8	0.071302
31	0xbeb7d1b9	-0.35902193
32	0xbe7c23af	-0.24622987
33	0x3e3d09fc	0.1846084
34	0xbe78e047	-0.24304305
35	0xbd710623	-0.058843743
36	0x3f21633d	0.6304205
37	0xbe1e5413	-0.1546176
38	0x3ea976d7	0.3309848
39	0xbe0460dd	-0.12927575
40	0xbed3105a	-0.41223413
41	0x3eb92b71	0.36165956
42	0x3ebc0e4e	0.36729664
43	0xbeb2d54a	-0.34928352
44	0x3f35ff18	0.7109237
45	0xbe024e2d	-0.12725134
46	0x3eb5b55d	0.35489932
47	0x3edb5418	0.42837596
48	0xbea196a6	-0.31560248
49	0xbe74dd3a	-0.23912516
50	0x3f213db1	0.6298476
51	0xbddede56	-0.10882251
52	0x3e960f74	0.29308665
53	0xbeb4e1a3	-0.35328397
54	0xbea4804e	-0.3212914
55	0x3ed7b989	0.4213374

l1.bias f4 [8]
0	0x3e9b531c	0.30336845
1	0x3cfaee06	0.030631077
2	0x3ecc0a49	0.39851597
3	0x3e378146	0.17920408
4	0xbe50c4df	-0.203876
5	0x3f02bd17	0.5106978
6	0x3f4ad200	0.79226685
7	0x3ea47f9d	0.3212861

l2.weight f4 [8, 8]
0	0x3edcc4fa	0.4311903
1	0x3e8f4949	0.279856
2	0xbea9d17c	-0.33167636
3	0xbdd0d626	-0.101970956
4	0x3e467c85	0.19383438
5	0x3e699934	0.22812349
6	0x3f3fd72d	0.7493771
7	0xbf4c3c49	-0.7977949
8	0xbef81314	-0.48452055
9	0x3cbbb893	0.02291516
10	0x3ea904ef	0.33011577
11	0x3f2cfffd	0.6757811
12	0x3e7447ac	0.23855466
13	0x3ec84a78	0.39119315
14	0xbed5bee4	-0.417472
15	0x3f0ed59b	0.55794686
16	0x3f13aea3	0.5768835
17	0x3dc1ca77	0.09462445
18	0xbed7239a	-0.4201935
19	0xbf2cce44	-0.67502236
20	0xbea36d13	-0.31919155
21	0x3d78704e	0.060653977
22	0x3f587f14	0.84568906
23	0xbf0f31e0	-0.5593548
24	0xbe9e6396	-0.30935353
25	0x3e44d38e	0.19221327
26	0x3ee3785b	0.4442776
27	0x3e816ce6	0.25278395
28	0x3adae915	0.0016701544
29	0x3ecbb053	0.39782962
30	0xbe2f7afb	-0.17136757
31	0x3f325b45	0.69670516
32	0xbeb1fbcc	-0.34762418
33	0xbe28e79f	-0.16494606
34	0x3f041943	0.51601046
35	0x3f07d09f	0.53052706
36	0x3c983710	0.018580943
37	0x3f015e3b	0.5053441
38	0x3dd2a2ee	0.102849826
39	0x3ef98712	0.48735863
40	0x3e6b1a7e	0.22959325
41	0xbe51a488	-0.2047292
42	0xbe92e5b5	-0.28690878
43	0x3d62b2f0	0.05534643
44	0x3e58fe4e	0.2119076
45	0xbe3200b0	-0.17383075
46	0xbe1047e9	-0.14089932
47	0xbe339a12	-0.17539242
48	0xbeba5547	-0.36393186
49	0x3e08ceda	0.13360158
50	0x3f3065eb	0.68905514
51	0x3f2701a2	0.65236866
52	0xbe066616	-0.1312488
53	0x3f30f327	0.6912102
54	0xbc525bdc	-0.012839284
55	0x3e6d7184	0.23187834
56	0x3f333ba9	0.7001291
57	0x3e8fb95a	0.280711
58	0xbee33137	-0.44373485
59	0xbea1cd11	-0.31601766
60	0x3ea372f5	0.31923643
61	0x3e7ab3b3	0.24482612
62	0x3f4f2d14	0.8092816
63	0xbe9e6349	-0.30935124

l2.bias f4 [8]
0	0x3f017f83	0.5058519
1	0x3ef3369e	0.47502607
2	0x3f373866	0.7157043
3	0x3e31ce50	0.17363858
4	0xbe2ed72a	-0.17074266
5	0xbea07415	-0.31338564
6	0xbd401c7d	-0.04690217
7	0x3e5a8b97	0.21342312

l3.weight f4 [2, 8]
0	0x3eac0fdc	0.3360585
1	0xbf277808	-0.6541753
2	0x3e133b2d	0.14378043
3	0xbf1dd51c	-0.61653304
4	0xbf36cd9b	-0.7140748
5	0x3e54de26	0.20787868
6	0xbedb9ec4	-0.42894566
7	0x3f722e81	0.9460221
8	0xbf473052	-0.77808106
9	0x3f355b7a	0.7084271
10	0xbf392623	-0.72323817
11	0x3f3568c5	0.7086299
12	0x3f1b824f	0.6074571
13	0x3e99bc1d	0.30026332
14	0x3efe811e	0.49707884
15	0xbec0b295	-0.37636247

l3.bias f4 [2]
0	0x3f109b5d	0.56487066
1	0xbf01e637	-0.50741905
