DataBase/Tasks.pth (torch, 2759 bytes, 6 tensors)

l1.weight f4 [8, 7]
000000 0d 20 0f 3f 2d 48 0f bf 22 22 d5 3d 8b 24 2e 3c
       0.5590828 -0.55969507 0.10406901 0.01062883
000010 f7 74 47 3e 54 ce 43 3f 92 f6 10 bf 52 25 d5 bd
       0.19478212 0.76486707 -0.56626236 -0.10407509
000020 f3 ce d5 3e ac a2 35 be 98 f2 3c 3f 92 99 34 be
       0.41759452 -0.17737836 0.7380767 -0.17636707
000030 ec 9b 34 be 92 cd f5 3e f6 e7 35 3e 86 47 62 3e
       -0.17637604 0.480084 0.17764267 0.22097597
000040 ac 97 53 be f0 5a 6b be c2 b8 1f 3e 88 b9 37 be
       -0.20663327 -0.22983909 0.15597823 -0.17941868
000050 d7 77 5b be 76 ea 06 3f d4 b0 c9 be 2f 38 75 3e
       -0.21432434 0.5270151 -0.39392722 0.23947214
000060 1a b6 c9 be 99 ae 14 3f 55 35 1f 3f 23 c5 ba be
       -0.39396745 0.58078915 0.62190753 -0.36478528
000070 87 a3 fe 3e 73 de 0f bd 5a 8d 3f 3f 56 22 35 bd
       0.49734136 -0.035124253 0.7482506 -0.0442222
000080 58 af f4 bd dc 4a 55 be 6a 1f 69 bd 7a d0 10 3f
       -0.11947507 -0.20829338 -0.056914724 0.5656811
000090 46 b2 06 be 28 3e 20 3f 85 f6 39 be 91 4c e1 3e
       -0.13153943 0.6259484 -0.18160446 0.44003728
0000a0 33 f6 6d be b1 40 6a be 76 95 97 be 26 90 1d 3f
       -0.23238449 -0.2287624 -0.29606217 0.6154808
0000b0 84 46 0f bf 70 4d f1 3e b7 48 c9 be 83 d8 8d be
       -0.55966973 0.47129393 -0.3931329 -0.27704248
0000c0 e6 de 1c 3f 41 e8 12 bf 9c 64 ca 3e 83 7f e9 be
       0.61277616 -0.5738564 0.39529884 -0.45605096
0000d0 32 f2 90 3e 5b e4 0f bf d6 ea 15 bf 2f f2 0f bd
       0.2830978 -0.5620782 -0.58561456 -0.035143074

l1.bias f4 [8]
000000 6f bc 11 3f 94 9e 34 3e 1b 33 b5 be fc af c9 3e
       0.5692815 0.17638618 -0.35390553 0.39392078
000010 ab 95 33 3d 5e 4c 3a 3e 3c 9a 30 3f 40 ea 15 3f
       0.043843906 0.18193194 0.6898534 0.5856056

l2.weight f4 [8, 8]
000000 4d 86 2e be e2 36 13 3f 96 6d 52 3e 7e 55 07 bf
       -0.17043419 0.5750562 0.20549616 -0.52864826
000010 c2 31 8e be 51 5c f3 bc c1 08 25 3f f5 0b 17 3f
       -0.27772337 -0.029707106 0.6446648 0.5900262
000020 5d fc 89 3e d0 88 0f bf 00 0b 5e 3d 17 4e 52 3f
       0.2695035 -0.56068134 0.05420971 0.82150406
000030 14 e9 d8 3e 5d ec 63 3f 61 9a db bd d5 76 d4 be
       0.42365324 0.89032537 -0.10722805 -0.41496912
000040 94 79 8d be d6 6d 22 3f a8 00 a4 bd 19 fe 14 be
       -0.2763182 0.63448846 -0.08007938 -0.14550056
000050 51 3c 9d bd b6 4f cb 3d dd 96 24 3f 2e 26 2b 3f
       -0.0767752 0.09927313 0.642927 0.6685513
000060 50 ab 8d 3e 8b 23 4c be 50 39 2c bd 70 0c 3a 3f
       0.27669764 -0.19935434 -0.042046845 0.7267523
000070 78 97 2d 3f 88 df 1c 3f 55 dd b8 be ac 28 ac be
       0.6780925 0.6127858 -0.36106363 -0.3362478
000080 8f a4 24 be 50 5a 2f 3f 03 75 12 be 97 db 46 be
       -0.16078399 0.6849718 -0.14302449 -0.19419704
000090 ea f1 7a be 01 29 81 be b5 4f 31 3d a5 8e 3f 3f
       -0.24506345 -0.25226596 0.043288905 0.74827033
0000a0 53 d2 49 3f 76 14 95 be af 91 a2 3e 4d 68 d7 3e
       0.78836554 -0.29117173 0.31751773 0.42071763
0000b0 5e f8 15 3e b4 8e b6 3e e6 c1 af bd 57 99 66 be
       0.14645526 0.3565575 -0.08581905 -0.22519432
0000c0 8e 6e 89 be cb de 8f 3e 04 c0 30 be cb cf 2e be
       -0.2684216 0.28099665 -0.17260748 -0.17071454
0000d0 27 68 e9 bd 19 23 3b 3e 43 bf 25 3f f6 3a 26 3f
       -0.113968186 0.18275107 0.6474497 0.6493372
0000e0 e9 f8 f9 be b9 6e 5e 3e 1c 52 d0 bd bf 60 a4 bd
       -0.48822716 0.21721925 -0.10171911 -0.08026265
0000f0 d9 5b 6b 3d 56 68 1b bf 5e 10 2c 3f 1c 46 2f 3f
       0.05746064 -0.6070608 0.67212474 0.68466353

l2.bias f4 [8]
000000 83 f3 d5 3e f3 4e 57 3f 23 50 ad 3d 03 a2 3b 3f
       0.41787347 0.8410484 0.084625505 0.73294085
000010 cd ae c9 3e 68 09 97 3e 7d b1 4e 3d 15 2d e9 3e
       0.39391175 0.29499364 0.050462235 0.45542207

l3.weight f4 [2, 8]
000000 0f 17 26 bf af 02 e5 3e af da 74 be 58 f5 f5 3e
       -0.64878935 0.4472861 -0.23911546 0.48038745
000010 2a 15 d7 be 42 db 17 3f 92 24 f1 be ab ae 90 be
       -0.42008334 0.59318936 -0.47098213 -0.2825826
000020 b4 98 c1 3e a2 92 08 bf e4 82 1f 3f b8 e6 a7 be
       0.37811816 -0.53348744 0.623091 -0.32793212
000030 43 15 a2 3e 46 11 18 bf a8 64 02 3f 43 71 20 3f
       0.31656846 -0.5940136 0.5093484 0.62672824

l3.bias f4 [2]
000000 0d 1f 38 3e 1b e0 3a bf
       0.17980595 -0.7299821
