DataBase/Tasks.pth (torch, 2775 bytes, 6 tensors)

l1.weight f4 [8, 7]
-0.34025624 0.62384695 -0.66823035 0.7782949 -0.62622905 -0.5631608 0.33052838 -0.32417062
-0.28848556 -0.2997358 -0.28848413 -0.36338776 0.55931693 -0.32085848 0.5702882 -0.35257247
0.36276236 -0.45319682 0.7438012 0.4978658 -0.44424003 0.52293044 -0.5759225 0.5838244
-0.14754984 0.2134255 0.4106272 -0.7024442 -0.6575024 0.60189456 -0.29572934 0.6957744
-0.07233463 -0.18008871 0.4877115 0.6759055 -0.34516898 -0.3653599 -0.34607583 0.38519663
0.60405767 -0.24409604 0.662464 -0.28682494 -0.20979117 -0.06876494 0.32993275 0.014982059
-0.13425066 -0.2167059 -0.059702072 -0.36572748 -0.059719015 0.7364795 0.39266568 -0.2732161
00000000: 1136 aebe 6fb4 1f3f 2511 2bbf 563e 473f
00000010: 8c50 20bf 4e2b 10bf 043b a93e b1f9 a5be
00000020: 61b4 93be f976 99be 31b4 93be f60d babe
00000030: 652f 0f3f 9047 a4be 68fe 113f 6184 b4be
00000040: fdbb b93e 6a09 e8be c169 3e3f 44e8 fe3e
00000050: 6e73 e3be c5de 053f a86f 13bf 8475 153f
00000060: 4e17 17be 378c 5a3e ba3d d23e 62d3 33bf
00000070: 1452 28bf c315 1a3f d669 97be 451e 323f
00000080: 2e24 94bd 2d69 38be 52b5 f93e 2508 2d3f
00000090: fdb9 b0be 7410 bbbe da30 b1be 7e38 c53e
000000a0: 86a3 1a3f 50f4 79be 3e97 293f b8da 92be
000000b0: 7fd3 56be a2d4 8cbd f2ec a83e 4f77 753c
000000c0: 0179 09be 27e8 5dbe 298a 74bd a240 bbbe
000000d0: ed9b 74bd ec89 3c3f 7a0b c93e fbe2 8bbe

l1.bias f4 [8]
0.668231 0.28848243 0.71542054 0.7758957 0.8342086 0.26808837 0.13214505 0.05969643
00000000: 3011 2b3f f8b3 933e cd25 373f 1aa1 463f
00000010: b28e 553f e142 893e 0851 073e 3e84 743d

l2.weight f4 [8, 8]
-0.19804032 -0.07850945 0.28509715 -0.34742436 -0.25709105 -0.24298185 0.11143693 0.26309857
0.39200664 -0.15204279 -0.076550424 -0.35025197 0.6245713 0.11881364 -0.0802739 -0.37368464
0.6641131 0.034475707 -0.1465434 -0.08212173 0.42997402 -0.20950897 -0.068608016 0.08635526
-0.18123144 -0.1796015 0.15785679 0.12528521 -0.22591913 0.06442436 0.00571838 0.18424143
-0.44220635 0.4452746 0.22702764 0.55737203 -0.0043974193 0.24599795 0.17875881 0.39024672
0.63287914 -0.34774822 -0.23604466 -0.50992525 0.6651072 -0.3104127 0.00755508 -0.32203186
-0.34531668 0.3381764 0.5952184 0.47001514 -0.19435826 0.45189187 0.6437085 0.6802443
0.4316712 0.0054743 -0.36171198 -0.0102790715 0.67317885 -0.12712198 -0.012149857 0.06828094
00000000: 15cb 4abe 90c9 a0bd 41f8 913e 9be1 b1be
00000010: 70a1 83be 3cd0 78be 0c39 e43d dbb4 863e
00000020: 18b5 c83e 1bb1 1bbe 78c6 9cbd 3a54 b3be
00000030: e8e3 1f3f 9154 f33d a466 a4bd 9853 bfbe
00000040: 5103 2a3f 6636 0d3d 790f 16be 702f a8bd
00000050: 8e25 dc3e 8589 56be 5c82 8cbd 07db b03d
00000060: bc94 39be 75e9 37be 36a5 213e c44a 003e
00000070: 5857 67be ebf0 833d 4061 bb3b c9a9 3c3e
00000080: df68 e2be 08fb e33e ef79 683e efaf 0e3f
00000090: 3a18 90bb e3e6 7b3e 8d0c 373e 6bce c73e
000000a0: 5e04 223f 0e0c b2be b1b5 71be 768a 02bf
000000b0: 7744 2a3f 6aee 9ebe 9b90 f73b 5ce1 a4be
000000c0: 59cd b0be 7525 ad3e 3c60 183f d3a5 f03e
000000d0: da05 47be 5f5e e73e 15ca 243f 7e24 2e3f
000000e0: 0204 dd3e c261 b33b 5032 b9be 8d69 28bc
000000f0: 7355 2c3f 442c 02be 3210 47bc e1d6 8b3d

l2.bias f4 [8]
-0.030675054 0.22227009 0.037811235 -0.36598122 0.49378395 0.4896448 0.4888424 0.041191667
00000000: 404a fbbc c59a 633e f4df 1a3d e461 bbbe
00000010: 40d1 fc3e b9b2 fa3e 8d49 fa3e 98b8 283d

l3.weight f4 [2, 8]
-0.110185936 -0.7030144 -0.7104732 0.082082696 0.8487502 -0.59864783 0.79055434 -0.39672065
-0.045757473 0.80676144 0.92353654 0.16530022 -0.95351255 0.40436536 -0.7633569 0.54544383
00000000: 2aa9 e1bd c0f8 33bf 92e1 35bf f91a a83d
00000010: b147 593f fc40 19bf c561 4a3f f81e cbbe
00000020: 306c 3bbd eb87 4e3f e46c 6c3f 7644 293e
00000030: 6619 74bf fa08 cf3e 5c6b 43bf 35a2 0b3f

l3.bias f4 [2]
-0.0029080056 0.0596289
00000000: 3d94 3ebb 6f3d 743d
